…
the end of the chain.\n            default:  SquashDims;\n        aggregator_kwargs (dict, optional): kwargs for the aggregator_class;\n        squeeze_output (bool): whether the output should be squeezed of its singleton dimensions.\n            default: True.\n        device (Optional[DEVICE_TYPING]): device to create the module on.\n\n    Examples:\n        >>> # All of the following examples provide valid, working MLPs\n        >>> cnet = ConvNet(in_features=3, depth=1, num_cells=[32,]) # MLP consisting of a single 3 x 6 linear layer\n        >>> print(cnet)\n        ConvNet(\n          (0): Conv2d(3, 32, kernel_size=(3, 3), stride=(1, 1))\n          (1): ELU(alpha=1.0)\n          (2): SquashDims()\n        )\n        >>> cnet = ConvNet(in_features=3, depth=4, num_cells=32)\n        >>> print(cnet)\n        ConvNet(\n          (0): Conv2d(3, 32, kernel_size=(3, 3), stride=(1, 1))\n          (1): ELU(alpha=1.0)\n          (2): Conv2d(32, 32, kernel_size=(3, 3), stride=(1, 1))\n          (3): ELU(alpha=1.0)\n          (4): Conv2d(32, 32, kernel_size=(3, 3), stride=(1, 1))\n          (5): ELU(alpha=1.0)\n          (6): Conv2d(32, 32, kernel_size=(3, 3), stride=(1, 1))\n          (7): ELU(alpha=1.0)\n          (8): SquashDims()\n        )\n        >>> cnet = ConvNet(in_features=3, num_cells=[32, 33, 34, 35])  # defines the depth by the num_cells arg\n        >>> print(cnet)\n        ConvNet(\n          (0): Conv2d(3, 32, kernel_size=(3, 3), stride=(1, 1))\n          (1): ELU(alpha=1.0)\n          (2): Conv2d(32, 33, kernel_size=(3, 3), stride=(1, 1))\n          (3): ELU(alpha=1.0)\n          (4): Conv2d(33, 34, kernel_size=(3, 3), stride=(1, 1))\n          (5): ELU(alpha=1.0)\n          (6): Conv2d(34, 35, kernel_size=(3, 3), stride=(1, 1))\n          (7): ELU(alpha=1.0)\n          (8): SquashDims()\n        )\n        >>> cnet = ConvNet(in_features=3, num_cells=[32, 33, 34, 35], kernel_sizes=[3, 4, 5, (2, 3)])  # defines kernels, possibly rectangular\n        >>> print(cnet)\n        ConvNet(\n          (0): Conv2d(3, 32, kernel_size=(3, 3), stride=(1, 1))\n          (1): ELU(alpha=1.0)\n          (2): Conv2d(32, 33, kernel_size=(4, 4), stride=(1, 1))\n          (3): ELU(alpha=1.0)\n          (4): Conv2d(33, 34, kernel_size=(5, 5), stride=(1, 1))\n          (5): ELU(alpha=1.0)\n          (6): Conv2d(34, 35, kernel_size=(2, 3), stride=(1, 1))\n          (7): ELU(alpha=1.0)\n          (8): SquashDims()\n        )\n\n    \"\"\"\n\n    def __init__(\n        self,\n        in_features: Optional[int] = None,\n        depth: Optional[int] = None,\n        num_cells: Union[Sequence, int] = None,\n        kernel_sizes: Union[Sequence[Union[int, Sequence[int]]], int] = 3,\n        strides: Union[Seque
…
